…
>>> module layer4.1.bn2.bias is trainable ? False
>>> module hist.conv_centers.weight is trainable ? False
>>> module hist.conv_centers.bias is trainable ? False
>>> module hist.conv_widths.weight is trainable ? False
>>> module hist.conv_widths.bias is trainable ? False
>>> module feature_reduction.0.weight is trainable ? True
>>> module feature_reduction.0.bias is trainable ? True
>>> module bn.weight is trainable ? True
>>> module bn.bias is trainable ? True
>>> module classifier.weight is trainable ? True
>>> module classifier.bias is trainable ? True
----------
model layers:
ResNet503D(
  (conv1): Conv3d(3, 64, kernel_size=(1, 7, 7), stride=(1, 2, 2), padding=(0, 3, 3), bias=False)
  (bn1): BatchNorm2d(64, eps=1e-05, momentum=0.1, affine=True, track_running_stats=True)
  (relu): ReLU(inplace=True)
  (maxpool): MaxPool3d(kernel_size=(1, 3, 3), stride=(1, 2, 2), padding=(0, 1, 1), dilation=(1, 1, 1), ceil_mode=False)
  (layer1): Sequential(
    (0): Bottleneck3D(
      (conv1): Conv3d(64, 64, kernel_size=(1, 3, 3), stride=(1, 1, 1), padding=(0, 1, 1), bias=False)
      (bn1): BatchNorm2d(64, eps=1e-05, momentum=0.1, affine=True, track_running_stats=True)
      (conv2): Conv3d(64, 64, kernel_size=(1, 3, 3), stride=(1, 1, 1), padding=(0, 1, 1), bias=False)
      (bn2): BatchNorm2d(64, eps=1e-05, momentum=0.1, affine=True, track_running_stats=True)
      (relu): ReLU(inplace=True)
    )
    (1): Bottleneck3D(
      (conv1): Conv3d(64, 64, kernel_size=(1, 3, 3), stride=(1, 1, 1), padding=(0, 1, 1), bias=False)
      (bn1): BatchNorm2d(64, eps=1e-05, momentum=0.1, affine=True, track_running_stats=True)
      (conv2): Conv3d(64, 64, kernel_size=(1, 3, 3), stride=(1, 1, 1), padding=(0, 1, 1), bias=False)
      (bn2): BatchNorm2d(64, eps=1e-05, momentum=0.1, affine=True, track_running_stats=True)
      (relu): ReLU(inplace=True)
    )
  )
  (layer2): Sequential(
    (0): Bottleneck3D(
      (conv1): Conv3d(64, 128, kernel_size=(1, 3, 3), stride=(1, 2, 2), padding=(0, 1, 1), bias=False)
      (bn1): BatchNorm2d(128, eps=1e-05, momentum=0.1, affine=True, track_running_stats=True)
      (conv2): APP3DC(
        (APM): APM(
          (padding): ConstantPad3d(padding=(0, 0, 0, 0, 1, 1), value=0)
          (semantic_mapping): Conv3d(128, 8, kernel_size=(1, 1, 1), stride=(1, 1, 1), bias=False)
          (x_mapping): Conv3d(128, 8, kernel_size=(1, 1, 1), stride=(1, 1, 1), bias=False)
          (n_mapping): Conv3d(128, 8, kernel_size=(1, 1, 1), stride=(1, 1, 1), bias=False)
          (contrastive_att_net): Sequential(
            (0): Conv3d(8, 1, kernel_size=(1, 1, 1), stride=(1, 1, 1), bias=False)
            (1): Sigmoid()
          )
        )
        (spatial_conv3d): Conv3d(128, 128, kernel_size=(1, 3, 3), stride=(1, 1, 1), padding=(0, 1, 1), bias=False)
        (temporal_conv3d): Conv3d(128, 128, kernel_size=(3, 1, 1), stride=(3, 1, 1), bias=False)
      )
      (bn2): BatchNorm2d(128, eps=1e-05, momentum=0.1, affine=True, track_running_stats=True)
      (relu): ReLU(inplace=True)
      (downsample): Sequential(
        (0): Conv3d(64, 128, kernel_size=(1, 1, 1), stride=(1, 2, 2), bias=False)
        (1): BatchNorm2d(128, eps=1e-05, momentum=0.1, affine=True, track_running_stats=True)
      )
    )
    (1): Bottleneck3D(
      (conv1): Conv3d(128, 128, kernel_size=(1, 3, 3), stride=(1, 1, 1), padding=(0, 1, 1), bias=False)
      (bn1): BatchNorm2d(128, eps=1e-05, momentum=0.1, affine=True, track_running_stats=True)
      (conv2): Conv3d(128, 128, kernel_size=(1, 3, 3), stride=(1, 1, 1), padding=(0, 1, 1), bias=False)
      (bn2): BatchNorm2d(128, eps=1e-05, momentum=0.1, affine=True, track_running_stats=True)
      (relu): ReLU(inplace=True)
    )
  )
  (layer3): Sequential(
    (0): Bottleneck3D(
      (conv1): Conv3d(128, 256, kernel_size=(1, 3, 3), stride=(1, 2, 2), padding=(0, 1, 1), bias=False)
      (bn1): BatchNorm2d(256, eps=1e-05, momentum=0.1, affine=True, track_running_stats=True)
      (conv2): APP3DC(
        (APM): APM(
          (padding): ConstantPad3d(padding=(0, 0, 0, 0, 1, 1), value=0)
          (semantic_mapping): Conv3d(256, 16, kernel_size=(1, 1, 1), stride=(1, 1, 1), bias=False)
          (x_mapping): Conv3d(256, 16, kernel_size=(1, 1, 1), stride=(1, 1, 1), bias=False)
          (n_mapping): Conv3d(256, 16, kernel_size=(1, 1, 1), stride=(1, 1, 1), bias=False)
          (contrastive_att_net): Sequential(
            (0): Conv3d(16, 1, kernel_size=(1, 1, 1), stride=(1, 1, 1), bias=False)
            (1): Sigmoid()
          )
        )
        (spatial_conv3d): Conv3d(256, 256, kernel_size=(1, 3, 3), stride=(1, 1, 1), padding=(0, 1, 1), bias=False)
        (temporal_conv3d): Conv3d(256, 256, kernel_size=(3, 1, 1), stride=(3, 1, 1), bias=False)
      )
      (bn2): BatchNorm2d(256, eps=1e-05, momentum=0.1, affine=True, track_running_stats=True)
      (relu): ReLU(inplace=True)
      (downsample): Sequential(
        (0): Conv3d(128, 256, kernel_size=(1, 1, 1), stride=(1, 2, 2), bias=False)
        (1): BatchNorm2d(256, eps=1e-05, momentum=0.1, affine=True, track_running_stats=True)
      )
    )
    (1): Bottleneck3D(
      (conv1): Conv3d(256, 256, kernel_size=(1, 3, 3), stride=(1, 1, 1), padding=(0, 1, 1), bias=False)
      (bn1): BatchNorm2d(256, eps=1e-05, momentum=0.1, affine=True, track_running_stats=True)
      (conv2): Conv3d(256, 256, kernel_size=(1, 3, 3), stride=(1, 1, 1), padding=(0, 1, 1), bias=False)
      (bn2): BatchNorm2d(256, eps=1e-05, momentum=0.1, affine=True, track_running_stats=True)
      (relu): ReLU(inplace=True)
    )
  )
  (layer4): Sequential(
    (0): Bottleneck3D(
      (conv1): Conv3d(256, 512, kernel_size=(1, 3, 3), stride=(1, 2, 2), padding=(0, 1, 1), bias=False)
      (bn1): BatchNorm2d(512, eps=1e-05, momentum=0.1, affine=True, track_running_stats=True)
      (conv2): Conv3d(512, 512, kernel_size=(1, 3, 3), stride=(1, 1, 1), padding=(0, 1, 1), bias=False)
      (bn2): BatchNorm2d(512, eps=1e-05, momentum=0.1, affine=True, track_running_stats=True)
      (relu): ReLU(inplace=True)
      (downsample): Sequential(
        (0): Conv3d(256, 512, kernel_size=(1, 1, 1), stride=(1, 2, 2), bias=False)
        (1): BatchNorm2d(512, eps=1e-05, momentum=0.1, affine=True, track_running_stats=True)
      )
    )
    (1): Bottleneck3D(
      (conv1): Conv3d(512, 512, kernel_size=(1, 3, 3), stride=(1, 1, 1), padding=(0, 1, 1), bias=False)
      (bn1): BatchNorm2d(512, eps=1e-05, momentum=0.1, affine=True, track_running_stats=True)
      (conv2): Conv3d(512, 512, kernel_size=(1, 3, 3), stride=(1, 1, 1), padding=(0, 1, 1), bias=False)
      (bn2): BatchNorm2d(512, eps=1e-05, momentum=0.1, affine=True, track_running_stats=True)
      (relu): ReLU(inplace=True)
    )
  )
  (hist): HistYusufLayer(
    (conv_centers): Conv2d(512, 5120, kernel_size=(1, 1), stride=(1, 1), groups=512)
    (conv_widths): Conv2d(5120, 5120, kernel_size=(1, 1), stride=(1, 1), groups=5120)
    (relu1): Threshold(threshold=1.0, value=0.0)
    (gap): AdaptiveAvgPool2d(output_size=1)
  )
  (feature_reduction): Sequential(
    (0): Linear(in_features=5120, out_features=512, bias=True)
  )
  (bn): BatchNorm1d(512, eps=1e-05, momentum=0.1, affine=True, track_running_stats=True)
  (classifier): Linear(in_features=512, out_features=625, bias=True)
)
Model size: 14.40174M
==> Start training
Epoch1 Time:33.1s Data:1.3s Loss:5.3778 Xent:5.3495 Htri:0.0283 Acc:27.79% 
Epoch2 Time:32.3s Data:1.2s Loss:3.1402 Xent:3.1369 Htri:0.0033 Acc:57.22% 
Epoch3 Time:32.5s Data:1.2s Loss:1.6715 Xent:1.6698 Htri:0.0017 Acc:79.18% 
Epoch4 Time:32.6s Data:1.2s Loss:0.8751 Xent:0.8737 Htri:0.0014 Acc:89.41% 
Epoch5 Time:32.5s Data:1.2s Loss:0.4756 Xent:0.4742 Htri:0.0014 Acc:96.08% 
…
