…
>>> module layer4.0.downsample.1.bias is trainable ? True
>>> module layer4.1.conv1.weight is trainable ? True
>>> module layer4.1.bn1.weight is trainable ? True
>>> module layer4.1.bn1.bias is trainable ? True
>>> module layer4.1.conv2.weight is trainable ? True
>>> module layer4.1.bn2.weight is trainable ? True
>>> module layer4.1.bn2.bias is trainable ? True
>>> module hist.hist_edges is trainable ? False
>>> module bn.weight is trainable ? True
>>> module bn.bias is trainable ? True
>>> module classifier.0.weight is trainable ? True
>>> module classifier.0.bias is trainable ? True
----------
model layers:
ResNet503D(
  (conv1): Conv3d(3, 64, kernel_size=(1, 7, 7), stride=(1, 2, 2), padding=(0, 3, 3), bias=False)
  (bn1): BatchNorm2d(64, eps=1e-05, momentum=0.1, affine=True, track_running_stats=True)
  (relu): ReLU(inplace=True)
  (maxpool): MaxPool3d(kernel_size=(1, 3, 3), stride=(1, 2, 2), padding=(0, 1, 1), dilation=(1, 1, 1), ceil_mode=False)
  (layer1): Sequential(
    (0): Bottleneck3D(
      (conv1): Conv3d(64, 64, kernel_size=(1, 3, 3), stride=(1, 1, 1), padding=(0, 1, 1), bias=False)
      (bn1): BatchNorm2d(64, eps=1e-05, momentum=0.1, affine=True, track_running_stats=True)
      (conv2): Conv3d(64, 64, kernel_size=(1, 3, 3), stride=(1, 1, 1), padding=(0, 1, 1), bias=False)
      (bn2): BatchNorm2d(64, eps=1e-05, momentum=0.1, affine=True, track_running_stats=True)
      (relu): ReLU(inplace=True)
    )
    (1): Bottleneck3D(
      (conv1): Conv3d(64, 64, kernel_size=(1, 3, 3), stride=(1, 1, 1), padding=(0, 1, 1), bias=False)
      (bn1): BatchNorm2d(64, eps=1e-05, momentum=0.1, affine=True, track_running_stats=True)
      (conv2): Conv3d(64, 64, kernel_size=(1, 3, 3), stride=(1, 1, 1), padding=(0, 1, 1), bias=False)
      (bn2): BatchNorm2d(64, eps=1e-05, momentum=0.1, affine=True, track_running_stats=True)
      (relu): ReLU(inplace=True)
    )
  )
  (layer2): Sequential(
    (0): Bottleneck3D(
      (conv1): Conv3d(64, 128, kernel_size=(1, 3, 3), stride=(1, 2, 2), padding=(0, 1, 1), bias=False)
      (bn1): BatchNorm2d(128, eps=1e-05, momentum=0.1, affine=True, track_running_stats=True)
      (conv2): APP3DC(
        (APM): APM(
          (padding): ConstantPad3d(padding=(0, 0, 0, 0, 1, 1), value=0)
          (semantic_mapping): Conv3d(128, 8, kernel_size=(1, 1, 1), stride=(1, 1, 1), bias=False)
          (x_mapping): Conv3d(128, 8, kernel_size=(1, 1, 1), stride=(1, 1, 1), bias=False)
          (n_mapping): Conv3d(128, 8, kernel_size=(1, 1, 1), stride=(1, 1, 1), bias=False)
          (contrastive_att_net): Sequential(
            (0): Conv3d(8, 1, kernel_size=(1, 1, 1), stride=(1, 1, 1), bias=False)
            (1): Sigmoid()
          )
        )
        (spatial_conv3d): Conv3d(128, 128, kernel_size=(1, 3, 3), stride=(1, 1, 1), padding=(0, 1, 1), bias=False)
        (temporal_conv3d): Conv3d(128, 128, kernel_size=(3, 1, 1), stride=(3, 1, 1), bias=False)
      )
      (bn2): BatchNorm2d(128, eps=1e-05, momentum=0.1, affine=True, track_running_stats=True)
      (relu): ReLU(inplace=True)
      (downsample): Sequential(
        (0): Conv3d(64, 128, kernel_size=(1, 1, 1), stride=(1, 2, 2), bias=False)
        (1): BatchNorm2d(128, eps=1e-05, momentum=0.1, affine=True, track_running_stats=True)
      )
    )
    (1): Bottleneck3D(
      (conv1): Conv3d(128, 128, kernel_size=(1, 3, 3), stride=(1, 1, 1), padding=(0, 1, 1), bias=False)
      (bn1): BatchNorm2d(128, eps=1e-05, momentum=0.1, affine=True, track_running_stats=True)
      (conv2): Conv3d(128, 128, kernel_size=(1, 3, 3), stride=(1, 1, 1), padding=(0, 1, 1), bias=False)
      (bn2): BatchNorm2d(128, eps=1e-05, momentum=0.1, affine=True, track_running_stats=True)
      (relu): ReLU(inplace=True)
    )
  )
  (layer3): Sequential(
    (0): Bottleneck3D(
      (conv1): Conv3d(128, 256, kernel_size=(1, 3, 3), stride=(1, 2, 2), padding=(0, 1, 1), bias=False)
      (bn1): BatchNorm2d(256, eps=1e-05, momentum=0.1, affine=True, track_running_stats=True)
      (conv2): APP3DC(
        (APM): APM(
          (padding): ConstantPad3d(padding=(0, 0, 0, 0, 1, 1), value=0)
          (semantic_mapping): Conv3d(256, 16, kernel_size=(1, 1, 1), stride=(1, 1, 1), bias=False)
          (x_mapping): Conv3d(256, 16, kernel_size=(1, 1, 1), stride=(1, 1, 1), bias=False)
          (n_mapping): Conv3d(256, 16, kernel_size=(1, 1, 1), stride=(1, 1, 1), bias=False)
          (contrastive_att_net): Sequential(
            (0): Conv3d(16, 1, kernel_size=(1, 1, 1), stride=(1, 1, 1), bias=False)
            (1): Sigmoid()
          )
        )
        (spatial_conv3d): Conv3d(256, 256, kernel_size=(1, 3, 3), stride=(1, 1, 1), padding=(0, 1, 1), bias=False)
        (temporal_conv3d): Conv3d(256, 256, kernel_size=(3, 1, 1), stride=(3, 1, 1), bias=False)
      )
      (bn2): BatchNorm2d(256, eps=1e-05, momentum=0.1, affine=True, track_running_stats=True)
      (relu): ReLU(inplace=True)
      (downsample): Sequential(
        (0): Conv3d(128, 256, kernel_size=(1, 1, 1), stride=(1, 2, 2), bias=False)
        (1): BatchNorm2d(256, eps=1e-05, momentum=0.1, affine=True, track_running_stats=True)
      )
    )
    (1): Bottleneck3D(
      (conv1): Conv3d(256, 256, kernel_size=(1, 3, 3), stride=(1, 1, 1), padding=(0, 1, 1), bias=False)
      (bn1): BatchNorm2d(256, eps=1e-05, momentum=0.1, affine=True, track_running_stats=True)
      (conv2): Conv3d(256, 256, kernel_size=(1, 3, 3), stride=(1, 1, 1), padding=(0, 1, 1), bias=False)
      (bn2): BatchNorm2d(256, eps=1e-05, momentum=0.1, affine=True, track_running_stats=True)
      (relu): ReLU(inplace=True)
    )
  )
  (layer4): Sequential(
    (0): Bottleneck3D(
      (conv1): Conv3d(256, 512, kernel_size=(1, 3, 3), stride=(1, 2, 2), padding=(0, 1, 1), bias=False)
      (bn1): BatchNorm2d(512, eps=1e-05, momentum=0.1, affine=True, track_running_stats=True)
      (conv2): Conv3d(512, 512, kernel_size=(1, 3, 3), stride=(1, 1, 1), padding=(0, 1, 1), bias=False)
      (bn2): BatchNorm2d(512, eps=1e-05, momentum=0.1, affine=True, track_running_stats=True)
      (relu): ReLU(inplace=True)
      (downsample): Sequential(
        (0): Conv3d(256, 512, kernel_size=(1, 1, 1), stride=(1, 2, 2), bias=False)
        (1): BatchNorm2d(512, eps=1e-05, momentum=0.1, affine=True, track_running_stats=True)
      )
    )
    (1): Bottleneck3D(
      (conv1): Conv3d(512, 512, kernel_size=(1, 3, 3), stride=(1, 1, 1), padding=(0, 1, 1), bias=False)
      (bn1): BatchNorm2d(512, eps=1e-05, momentum=0.1, affine=True, track_running_stats=True)
      (conv2): Conv3d(512, 512, kernel_size=(1, 3, 3), stride=(1, 1, 1), padding=(0, 1, 1), bias=False)
      (bn2): BatchNorm2d(512, eps=1e-05, momentum=0.1, affine=True, track_running_stats=True)
      (relu): ReLU(inplace=True)
    )
  )
  (hist): HistByProf()
  (bn): BatchNorm1d(1024, eps=1e-05, momentum=0.1, affine=True, track_running_stats=True)
  (classifier): Sequential(
    (0): Linear(in_features=1024, out_features=625, bias=True)
  )
)
Model size: 12.08033M
==> Start training
Epoch1 Time:186.5s Data:2.6s Loss:5.5254 Xent:5.2873 Htri:0.2380 Acc:15.24% 
Epoch2 Time:184.6s Data:1.8s Loss:3.6158 Xent:3.4961 Htri:0.1197 Acc:34.23% 
Epoch3 Time:164.2s Data:1.7s Loss:2.4177 Xent:2.3390 Htri:0.0787 Acc:54.18% 
Epoch4 Time:158.1s Data:1.6s Loss:1.6736 Xent:1.6108 Htri:0.0628 Acc:66.79% 
…
